…
 main_metric        |                     
 num_neg            | 1                   
 num_workers        | 0                   
 optimizer          | Adam                
 random_seed        | 0                   
 save_final_results | 1                   
 test_all           | 0                   
 topk               | 5,10,20,50          
===========================================
INFO:root:Device: cuda
INFO:root:Load corpus from /home/ljh/ReChorus-master1/ReChorus-master/data/Grocery_and_Gourmet_Food/DcrecReader.pkl
INFO:root:#params: 673536
INFO:root:Dcrec(
  (emb_layer): TransformerEmbedding(
    (token_emb): Embedding(8715, 64, padding_idx=0)
    (position_emb): Embedding(50, 64)
    (dropout): Dropout(p=0.1, inplace=False)
  )
  (transformer_layers): ModuleList(
    (0): TransformerLayer(
      (attention): MultiHeadAttention(
        (linear_layers): ModuleList(
          (0): Linear(in_features=64, out_features=64, bias=True)
          (1): Linear(in_features=64, out_features=64, bias=True)
          (2): Linear(in_features=64, out_features=64, bias=True)
        )
        (output_linear): Linear(in_features=64, out_features=64, bias=True)
        (dropout): Dropout(p=0.1, inplace=False)
      )
      (feed_forward): PositionwiseFeedForward(
        (w_1): Linear(in_features=64, out_features=256, bias=True)
        (w_2): Linear(in_features=256, out_features=64, bias=True)
        (dropout): Dropout(p=0.1, inplace=False)
        (activation): GELU(approximate=none)
      )
      (input_sublayer): ResidualConnection(
        (norm): LayerNorm((64,), eps=1e-05, elementwise_affine=True)
        (dropout): Dropout(p=0.1, inplace=False)
      )
      (output_sublayer): ResidualConnection(
        (norm): LayerNorm((64,), eps=1e-05, elementwise_affine=True)
        (dropout): Dropout(p=0.1, inplace=False)
      )
      (dropout): Dropout(p=0.1, inplace=False)
    )
    (1): TransformerLayer(
      (attention): MultiHeadAttention(
        (linear_layers): ModuleList(
          (0): Linear(in_features=64, out_features=64, bias=True)
          (1): Linear(in_features=64, out_features=64, bias=True)
          (2): Linear(in_features=64, out_features=64, bias=True)
        )
        (output_linear): Linear(in_features=64, out_features=64, bias=True)
        (dropout): Dropout(p=0.1, inplace=False)
      )
      (feed_forward): PositionwiseFeedForward(
        (w_1): Linear(in_features=64, out_features=256, bias=True)
        (w_2): Linear(in_features=256, out_features=64, bias=True)
        (dropout): Dropout(p=0.1, inplace=False)
        (activation): GELU(approximate=none)
      )
      (input_sublayer): ResidualConnection(
        (norm): LayerNorm((64,), eps=1e-05, elementwise_affine=True)
        (dropout): Dropout(p=0.1, inplace=False)
      )
      (output_sublayer): ResidualConnection(
        (norm): LayerNorm((64,), eps=1e-05, elementwise_affine=True)
        (dropout): Dropout(p=0.1, inplace=False)
      )
      (dropout): Dropout(p=0.1, inplace=False)
    )
  )
  (loss_fct): CrossEntropyLoss()
  (dropout): Dropout(p=0.1, inplace=False)
  (layernorm): LayerNorm((64,), eps=1e-12, elementwise_affine=True)
  (contrastive_learning_layer): CLLayer(
    (fc1): Linear(in_features=64, out_features=64, bias=True)
    (fc2): Linear(in_features=64, out_features=64, bias=True)
  )
  (gcn): GCN(
    (layer): GraphConv(in=64, out=64, normalization=both, activation=None)
  )
)
INFO:root:Test Before Training: (HR@5:0.0430,NDCG@5:0.0251,HR@10:0.0915,NDCG@10:0.0405,HR@20:0.1911,NDCG@20:0.0653,HR@50:0.5032,NDCG@50:0.1261)
INFO:root:Optimizer: Adam
INFO:root:Namespace(model_name='Dcrec', model_mode='')
INFO:root:--------------------------------------------- BEGIN: 2024-12-18 21:43:05 ---------------------------------------------
…
